<?xml version="1.0" ?>
<net batch="1" name="op4" version="5">
	<layers>
		<layer id="0" name="input_1" precision="FP16" type="Input">
			<output>
				<port id="0">
					<dim>1</dim>
					<dim>3</dim>
					<dim>368</dim>
					<dim>368</dim>
				</port>
			</output>
		</layer>
		<layer id="1" name="lambda_1/truediv/mul_/FusedPower_" precision="FP16" type="Power">
			<data power="1" scale="0.00390625" shift="-0.5"/>
			<input>
				<port id="0">
					<dim>1</dim>
					<dim>3</dim>
					<dim>368</dim>
					<dim>368</dim>
				</port>
			</input>
			<output>
				<port id="1">
					<dim>1</dim>
					<dim>3</dim>
					<dim>368</dim>
					<dim>368</dim>
				</port>
			</output>
		</layer>
		<layer id="2" name="conv1/convolution" precision="FP16" type="Convolution">
			<data dilations="1,1" group="1" kernel="3,3" output="32" pads_begin="0,0" pads_end="1,1" strides="2,2"/>
			<input>
				<port id="0">
					<dim>1</dim>
					<dim>3</dim>
					<dim>368</dim>
					<dim>368</dim>
				</port>
			</input>
			<output>
				<port id="3">
					<dim>1</dim>
					<dim>32</dim>
					<dim>184</dim>
					<dim>184</dim>
				</port>
			</output>
			<blobs>
				<weights offset="0" size="1728"/>
				<biases offset="1728" size="64"/>
			</blobs>
		</layer>
		<layer id="3" name="conv1_relu/Relu6" precision="FP16" type="Clamp">
			<data max="6" min="0"/>
			<input>
				<port id="0">
					<dim>1</dim>
					<dim>32</dim>
					<dim>184</dim>
					<dim>184</dim>
				</port>
			</input>
			<output>
				<port id="1">
					<dim>1</dim>
					<dim>32</dim>
					<dim>184</dim>
					<dim>184</dim>
				</port>
			</output>
		</layer>
		<layer id="4" name="conv_dw_1/depthwise" precision="FP16" type="Convolution">
			<data auto_pad="same_upper" dilations="1,1" group="32" kernel="3,3" output="32" pads_begin="1,1" pads_end="1,1" strides="1,1"/>
			<input>
				<port id="0">
					<dim>1</dim>
					<dim>32</dim>
					<dim>184</dim>
					<dim>184</dim>
				</port>
			</input>
			<output>
				<port id="3">
					<dim>1</dim>
					<dim>32</dim>
					<dim>184</dim>
					<dim>184</dim>
				</port>
			</output>
			<blobs>
				<weights offset="1792" size="576"/>
				<biases offset="2368" size="64"/>
			</blobs>
		</layer>
		<layer id="5" name="conv_dw_1_relu/Relu6" precision="FP16" type="Clamp">
			<data max="6" min="0"/>
			<input>
				<port id="0">
					<dim>1</dim>
					<dim>32</dim>
					<dim>184</dim>
					<dim>184</dim>
				</port>
			</input>
			<output>
				<port id="1">
					<dim>1</dim>
					<dim>32</dim>
					<dim>184</dim>
					<dim>184</dim>
				</port>
			</output>
		</layer>
		<layer id="6" name="conv_pw_1/convolution" precision="FP16" type="Convolution">
			<data auto_pad="same_upper" dilations="1,1" group="1" kernel="1,1" output="64" pads_begin="0,0" pads_end="0,0" strides="1,1"/>
			<input>
				<port id="0">
					<dim>1</dim>
					<dim>32</dim>
					<dim>184</dim>
					<dim>184</dim>
				</port>
			</input>
			<output>
				<port id="3">
					<dim>1</dim>
					<dim>64</dim>
					<dim>184</dim>
					<dim>184</dim>
				</port>
			</output>
			<blobs>
				<weights offset="2432" size="4096"/>
				<biases offset="6528" size="128"/>
			</blobs>
		</layer>
		<layer id="7" name="conv_pw_1_relu/Relu6" precision="FP16" type="Clamp">
			<data max="6" min="0"/>
			<input>
				<port id="0">
					<dim>1</dim>
					<dim>64</dim>
					<dim>184</dim>
					<dim>184</dim>
				</port>
			</input>
			<output>
				<port id="1">
					<dim>1</dim>
					<dim>64</dim>
					<dim>184</dim>
					<dim>184</dim>
				</port>
			</output>
		</layer>
		<layer id="8" name="conv_dw_2/depthwise" precision="FP16" type="Convolution">
			<data dilations="1,1" group="64" kernel="3,3" output="64" pads_begin="0,0" pads_end="1,1" strides="2,2"/>
			<input>
				<port id="0">
					<dim>1</dim>
					<dim>64</dim>
					<dim>184</dim>
					<dim>184</dim>
				</port>
			</input>
			<output>
				<port id="3">
					<dim>1</dim>
					<dim>64</dim>
					<dim>92</dim>
					<dim>92</dim>
				</port>
			</output>
			<blobs>
				<weights offset="6656" size="1152"/>
				<biases offset="7808" size="128"/>
			</blobs>
		</layer>
		<layer id="9" name="conv_dw_2_relu/Relu6" precision="FP16" type="Clamp">
			<data max="6" min="0"/>
			<input>
				<port id="0">
					<dim>1</dim>
					<dim>64</dim>
					<dim>92</dim>
					<dim>92</dim>
				</port>
			</input>
			<output>
				<port id="1">
					<dim>1</dim>
					<dim>64</dim>
					<dim>92</dim>
					<dim>92</dim>
				</port>
			</output>
		</layer>
		<layer id="10" name="conv_pw_2/convolution" precision="FP16" type="Convolution">
			<data auto_pad="same_upper" dilations="1,1" group="1" kernel="1,1" output="128" pads_begin="0,0" pads_end="0,0" strides="1,1"/>
			<input>
				<port id="0">
					<dim>1</dim>
					<dim>64</dim>
					<dim>92</dim>
					<dim>92</dim>
				</port>
			</input>
			<output>
				<port id="3">
					<dim>1</dim>
					<dim>128</dim>
					<dim>92</dim>
					<dim>92</dim>
				</port>
			</output>
			<blobs>
				<weights offset="7936" size="16384"/>
				<biases offset="24320" size="256"/>
			</blobs>
		</layer>
		<layer id="11" name="conv_pw_2_relu/Relu6" precision="FP16" type="Clamp">
			<data max="6" min="0"/>
			<input>
				<port id="0">
					<dim>1</dim>
					<dim>128</dim>
					<dim>92</dim>
					<dim>92</dim>
				</port>
			</input>
			<output>
				<port id="1">
					<dim>1</dim>
					<dim>128</dim>
					<dim>92</dim>
					<dim>92</dim>
				</port>
			</output>
		</layer>
		<layer id="12" name="conv_dw_3/depthwise" precision="FP16" type="Convolution">
			<data auto_pad="same_upper" dilations="1,1" group="128" kernel="3,3" output="128" pads_begin="1,1" pads_end="1,1" strides="1,1"/>
			<input>
				<port id="0">
					<dim>1</dim>
					<dim>128</dim>
					<dim>92</dim>
					<dim>92</dim>
				</port>
			</input>
			<output>
				<port id="3">
					<dim>1</dim>
					<dim>128</dim>
					<dim>92</dim>
					<dim>92</dim>
				</port>
			</output>
			<blobs>
				<weights offset="24576" size="2304"/>
				<biases offset="26880" size="256"/>
			</blobs>
		</layer>
		<layer id="13" name="conv_dw_3_relu/Relu6" precision="FP16" type="Clamp">
			<data max="6" min="0"/>
			<input>
				<port id="0">
					<dim>1</dim>
					<dim>128</dim>
					<dim>92</dim>
					<dim>92</dim>
				</port>
			</input>
			<output>
				<port id="1">
					<dim>1</dim>
					<dim>128</dim>
					<dim>92</dim>
					<dim>92</dim>
				</port>
			</output>
		</layer>
		<layer id="14" name="conv_pw_3/convolution" precision="FP16" type="Convolution">
			<data auto_pad="same_upper" dilations="1,1" group="1" kernel="1,1" output="128" pads_begin="0,0" pads_end="0,0" strides="1,1"/>
			<input>
				<port id="0">
					<dim>1</dim>
					<dim>128</dim>
					<dim>92</dim>
					<dim>92</dim>
				</port>
			</input>
			<output>
				<port id="3">
					<dim>1</dim>
					<dim>128</dim>
					<dim>92</dim>
					<dim>92</dim>
				</port>
			</output>
			<blobs>
				<weights offset="27136" size="32768"/>
				<biases offset="59904" size="256"/>
			</blobs>
		</layer>
		<layer id="15" name="conv_pw_3_relu/Relu6" precision="FP16" type="Clamp">
			<data max="6" min="0"/>
			<input>
				<port id="0">
					<dim>1</dim>
					<dim>128</dim>
					<dim>92</dim>
					<dim>92</dim>
				</port>
			</input>
			<output>
				<port id="1">
					<dim>1</dim>
					<dim>128</dim>
					<dim>92</dim>
					<dim>92</dim>
				</port>
			</output>
		</layer>
		<layer id="16" name="conv_dw_4/depthwise" precision="FP16" type="Convolution">
			<data dilations="1,1" group="128" kernel="3,3" output="128" pads_begin="0,0" pads_end="1,1" strides="2,2"/>
			<input>
				<port id="0">
					<dim>1</dim>
					<dim>128</dim>
					<dim>92</dim>
					<dim>92</dim>
				</port>
			</input>
			<output>
				<port id="3">
					<dim>1</dim>
					<dim>128</dim>
					<dim>46</dim>
					<dim>46</dim>
				</port>
			</output>
			<blobs>
				<weights offset="60160" size="2304"/>
				<biases offset="62464" size="256"/>
			</blobs>
		</layer>
		<layer id="17" name="conv_dw_4_relu/Relu6" precision="FP16" type="Clamp">
			<data max="6" min="0"/>
			<input>
				<port id="0">
					<dim>1</dim>
					<dim>128</dim>
					<dim>46</dim>
					<dim>46</dim>
				</port>
			</input>
			<output>
				<port id="1">
					<dim>1</dim>
					<dim>128</dim>
					<dim>46</dim>
					<dim>46</dim>
				</port>
			</output>
		</layer>
		<layer id="18" name="conv_pw_4/convolution" precision="FP16" type="Convolution">
			<data auto_pad="same_upper" dilations="1,1" group="1" kernel="1,1" output="256" pads_begin="0,0" pads_end="0,0" strides="1,1"/>
			<input>
				<port id="0">
					<dim>1</dim>
					<dim>128</dim>
					<dim>46</dim>
					<dim>46</dim>
				</port>
			</input>
			<output>
				<port id="3">
					<dim>1</dim>
					<dim>256</dim>
					<dim>46</dim>
					<dim>46</dim>
				</port>
			</output>
			<blobs>
				<weights offset="62720" size="65536"/>
				<biases offset="128256" size="512"/>
			</blobs>
		</layer>
		<layer id="19" name="conv_pw_4_relu/Relu6" precision="FP16" type="Clamp">
			<data max="6" min="0"/>
			<input>
				<port id="0">
					<dim>1</dim>
					<dim>256</dim>
					<dim>46</dim>
					<dim>46</dim>
				</port>
			</input>
			<output>
				<port id="1">
					<dim>1</dim>
					<dim>256</dim>
					<dim>46</dim>
					<dim>46</dim>
				</port>
			</output>
		</layer>
		<layer id="20" name="conv_dw_5/depthwise" precision="FP16" type="Convolution">
			<data auto_pad="same_upper" dilations="1,1" group="256" kernel="3,3" output="256" pads_begin="1,1" pads_end="1,1" strides="1,1"/>
			<input>
				<port id="0">
					<dim>1</dim>
					<dim>256</dim>
					<dim>46</dim>
					<dim>46</dim>
				</port>
			</input>
			<output>
				<port id="3">
					<dim>1</dim>
					<dim>256</dim>
					<dim>46</dim>
					<dim>46</dim>
				</port>
			</output>
			<blobs>
				<weights offset="128768" size="4608"/>
				<biases offset="133376" size="512"/>
			</blobs>
		</layer>
		<layer id="21" name="conv_dw_5_relu/Relu6" precision="FP16" type="Clamp">
			<data max="6" min="0"/>
			<input>
				<port id="0">
					<dim>1</dim>
					<dim>256</dim>
					<dim>46</dim>
					<dim>46</dim>
				</port>
			</input>
			<output>
				<port id="1">
					<dim>1</dim>
					<dim>256</dim>
					<dim>46</dim>
					<dim>46</dim>
				</port>
			</output>
		</layer>
		<layer id="22" name="conv_pw_5/convolution" precision="FP16" type="Convolution">
			<data auto_pad="same_upper" dilations="1,1" group="1" kernel="1,1" output="256" pads_begin="0,0" pads_end="0,0" strides="1,1"/>
			<input>
				<port id="0">
					<dim>1</dim>
					<dim>256</dim>
					<dim>46</dim>
					<dim>46</dim>
				</port>
			</input>
			<output>
				<port id="3">
					<dim>1</dim>
					<dim>256</dim>
					<dim>46</dim>
					<dim>46</dim>
				</port>
			</output>
			<blobs>
				<weights offset="133888" size="131072"/>
				<biases offset="264960" size="512"/>
			</blobs>
		</layer>
		<layer id="23" name="conv_pw_5_relu/Relu6" precision="FP16" type="Clamp">
			<data max="6" min="0"/>
			<input>
				<port id="0">
					<dim>1</dim>
					<dim>256</dim>
					<dim>46</dim>
					<dim>46</dim>
				</port>
			</input>
			<output>
				<port id="1">
					<dim>1</dim>
					<dim>256</dim>
					<dim>46</dim>
					<dim>46</dim>
				</port>
			</output>
		</layer>
		<layer id="24" name="conv_dw_6/depthwise" precision="FP16" type="Convolution">
			<data dilations="1,1" group="256" kernel="3,3" output="256" pads_begin="0,0" pads_end="1,1" strides="2,2"/>
			<input>
				<port id="0">
					<dim>1</dim>
					<dim>256</dim>
					<dim>46</dim>
					<dim>46</dim>
				</port>
			</input>
			<output>
				<port id="3">
					<dim>1</dim>
					<dim>256</dim>
					<dim>23</dim>
					<dim>23</dim>
				</port>
			</output>
			<blobs>
				<weights offset="265472" size="4608"/>
				<biases offset="270080" size="512"/>
			</blobs>
		</layer>
		<layer id="25" name="conv_dw_6_relu/Relu6" precision="FP16" type="Clamp">
			<data max="6" min="0"/>
			<input>
				<port id="0">
					<dim>1</dim>
					<dim>256</dim>
					<dim>23</dim>
					<dim>23</dim>
				</port>
			</input>
			<output>
				<port id="1">
					<dim>1</dim>
					<dim>256</dim>
					<dim>23</dim>
					<dim>23</dim>
				</port>
			</output>
		</layer>
		<layer id="26" name="conv_pw_6/convolution" precision="FP16" type="Convolution">
			<data auto_pad="same_upper" dilations="1,1" group="1" kernel="1,1" output="512" pads_begin="0,0" pads_end="0,0" strides="1,1"/>
			<input>
				<port id="0">
					<dim>1</dim>
					<dim>256</dim>
					<dim>23</dim>
					<dim>23</dim>
				</port>
			</input>
			<output>
				<port id="3">
					<dim>1</dim>
					<dim>512</dim>
					<dim>23</dim>
					<dim>23</dim>
				</port>
			</output>
			<blobs>
				<weights offset="270592" size="262144"/>
				<biases offset="532736" size="1024"/>
			</blobs>
		</layer>
		<layer id="27" name="conv_pw_6_relu/Relu6" precision="FP16" type="Clamp">
			<data max="6" min="0"/>
			<input>
				<port id="0">
					<dim>1</dim>
					<dim>512</dim>
					<dim>23</dim>
					<dim>23</dim>
				</port>
			</input>
			<output>
				<port id="1">
					<dim>1</dim>
					<dim>512</dim>
					<dim>23</dim>
					<dim>23</dim>
				</port>
			</output>
		</layer>
		<layer id="28" name="conv_dw_7/depthwise" precision="FP16" type="Convolution">
			<data auto_pad="same_upper" dilations="1,1" group="512" kernel="3,3" output="512" pads_begin="1,1" pads_end="1,1" strides="1,1"/>
			<input>
				<port id="0">
					<dim>1</dim>
					<dim>512</dim>
					<dim>23</dim>
					<dim>23</dim>
				</port>
			</input>
			<output>
				<port id="3">
					<dim>1</dim>
					<dim>512</dim>
					<dim>23</dim>
					<dim>23</dim>
				</port>
			</output>
			<blobs>
				<weights offset="533760" size="9216"/>
				<biases offset="542976" size="1024"/>
			</blobs>
		</layer>
		<layer id="29" name="conv_dw_7_relu/Relu6" precision="FP16" type="Clamp">
			<data max="6" min="0"/>
			<input>
				<port id="0">
					<dim>1</dim>
					<dim>512</dim>
					<dim>23</dim>
					<dim>23</dim>
				</port>
			</input>
			<output>
				<port id="1">
					<dim>1</dim>
					<dim>512</dim>
					<dim>23</dim>
					<dim>23</dim>
				</port>
			</output>
		</layer>
		<layer id="30" name="conv_pw_7/convolution" precision="FP16" type="Convolution">
			<data auto_pad="same_upper" dilations="1,1" group="1" kernel="1,1" output="512" pads_begin="0,0" pads_end="0,0" strides="1,1"/>
			<input>
				<port id="0">
					<dim>1</dim>
					<dim>512</dim>
					<dim>23</dim>
					<dim>23</dim>
				</port>
			</input>
			<output>
				<port id="3">
					<dim>1</dim>
					<dim>512</dim>
					<dim>23</dim>
					<dim>23</dim>
				</port>
			</output>
			<blobs>
				<weights offset="544000" size="524288"/>
				<biases offset="1068288" size="1024"/>
			</blobs>
		</layer>
		<layer id="31" name="conv_pw_7_relu/Relu6" precision="FP16" type="Clamp">
			<data max="6" min="0"/>
			<input>
				<port id="0">
					<dim>1</dim>
					<dim>512</dim>
					<dim>23</dim>
					<dim>23</dim>
				</port>
			</input>
			<output>
				<port id="1">
					<dim>1</dim>
					<dim>512</dim>
					<dim>23</dim>
					<dim>23</dim>
				</port>
			</output>
		</layer>
		<layer id="32" name="conv_dw_8/depthwise" precision="FP16" type="Convolution">
			<data auto_pad="same_upper" dilations="1,1" group="512" kernel="3,3" output="512" pads_begin="1,1" pads_end="1,1" strides="1,1"/>
			<input>
				<port id="0">
					<dim>1</dim>
					<dim>512</dim>
					<dim>23</dim>
					<dim>23</dim>
				</port>
			</input>
			<output>
				<port id="3">
					<dim>1</dim>
					<dim>512</dim>
					<dim>23</dim>
					<dim>23</dim>
				</port>
			</output>
			<blobs>
				<weights offset="1069312" size="9216"/>
				<biases offset="1078528" size="1024"/>
			</blobs>
		</layer>
		<layer id="33" name="conv_dw_8_relu/Relu6" precision="FP16" type="Clamp">
			<data max="6" min="0"/>
			<input>
				<port id="0">
					<dim>1</dim>
					<dim>512</dim>
					<dim>23</dim>
					<dim>23</dim>
				</port>
			</input>
			<output>
				<port id="1">
					<dim>1</dim>
					<dim>512</dim>
					<dim>23</dim>
					<dim>23</dim>
				</port>
			</output>
		</layer>
		<layer id="34" name="conv_pw_8/convolution" precision="FP16" type="Convolution">
			<data auto_pad="same_upper" dilations="1,1" group="1" kernel="1,1" output="512" pads_begin="0,0" pads_end="0,0" strides="1,1"/>
			<input>
				<port id="0">
					<dim>1</dim>
					<dim>512</dim>
					<dim>23</dim>
					<dim>23</dim>
				</port>
			</input>
			<output>
				<port id="3">
					<dim>1</dim>
					<dim>512</dim>
					<dim>23</dim>
					<dim>23</dim>
				</port>
			</output>
			<blobs>
				<weights offset="1079552" size="524288"/>
				<biases offset="1603840" size="1024"/>
			</blobs>
		</layer>
		<layer id="35" name="conv_pw_8_relu/Relu6" precision="FP16" type="Clamp">
			<data max="6" min="0"/>
			<input>
				<port id="0">
					<dim>1</dim>
					<dim>512</dim>
					<dim>23</dim>
					<dim>23</dim>
				</port>
			</input>
			<output>
				<port id="1">
					<dim>1</dim>
					<dim>512</dim>
					<dim>23</dim>
					<dim>23</dim>
				</port>
			</output>
		</layer>
		<layer id="36" name="conv_dw_9/depthwise" precision="FP16" type="Convolution">
			<data auto_pad="same_upper" dilations="1,1" group="512" kernel="3,3" output="512" pads_begin="1,1" pads_end="1,1" strides="1,1"/>
			<input>
				<port id="0">
					<dim>1</dim>
					<dim>512</dim>
					<dim>23</dim>
					<dim>23</dim>
				</port>
			</input>
			<output>
				<port id="3">
					<dim>1</dim>
					<dim>512</dim>
					<dim>23</dim>
					<dim>23</dim>
				</port>
			</output>
			<blobs>
				<weights offset="1604864" size="9216"/>
				<biases offset="1614080" size="1024"/>
			</blobs>
		</layer>
		<layer id="37" name="conv_dw_9_relu/Relu6" precision="FP16" type="Clamp">
			<data max="6" min="0"/>
			<input>
				<port id="0">
					<dim>1</dim>
					<dim>512</dim>
					<dim>23</dim>
					<dim>23</dim>
				</port>
			</input>
			<output>
				<port id="1">
					<dim>1</dim>
					<dim>512</dim>
					<dim>23</dim>
					<dim>23</dim>
				</port>
			</output>
		</layer>
		<layer id="38" name="conv_pw_9/convolution" precision="FP16" type="Convolution">
			<data auto_pad="same_upper" dilations="1,1" group="1" kernel="1,1" output="512" pads_begin="0,0" pads_end="0,0" strides="1,1"/>
			<input>
				<port id="0">
					<dim>1</dim>
					<dim>512</dim>
					<dim>23</dim>
					<dim>23</dim>
				</port>
			</input>
			<output>
				<port id="3">
					<dim>1</dim>
					<dim>512</dim>
					<dim>23</dim>
					<dim>23</dim>
				</port>
			</output>
			<blobs>
				<weights offset="1615104" size="524288"/>
				<biases offset="2139392" size="1024"/>
			</blobs>
		</layer>
		<layer id="39" name="conv_pw_9_relu/Relu6" precision="FP16" type="Clamp">
			<data max="6" min="0"/>
			<input>
				<port id="0">
					<dim>1</dim>
					<dim>512</dim>
					<dim>23</dim>
					<dim>23</dim>
				</port>
			</input>
			<output>
				<port id="1">
					<dim>1</dim>
					<dim>512</dim>
					<dim>23</dim>
					<dim>23</dim>
				</port>
			</output>
		</layer>
		<layer id="40" name="conv_dw_10/depthwise" precision="FP16" type="Convolution">
			<data auto_pad="same_upper" dilations="1,1" group="512" kernel="3,3" output="512" pads_begin="1,1" pads_end="1,1" strides="1,1"/>
			<input>
				<port id="0">
					<dim>1</dim>
					<dim>512</dim>
					<dim>23</dim>
					<dim>23</dim>
				</port>
			</input>
			<output>
				<port id="3">
					<dim>1</dim>
					<dim>512</dim>
					<dim>23</dim>
					<dim>23</dim>
				</port>
			</output>
			<blobs>
				<weights offset="2140416" size="9216"/>
				<biases offset="2149632" size="1024"/>
			</blobs>
		</layer>
		<layer id="41" name="conv_dw_10_relu/Relu6" precision="FP16" type="Clamp">
			<data max="6" min="0"/>
			<input>
				<port id="0">
					<dim>1</dim>
					<dim>512</dim>
					<dim>23</dim>
					<dim>23</dim>
				</port>
			</input>
			<output>
				<port id="1">
					<dim>1</dim>
					<dim>512</dim>
					<dim>23</dim>
					<dim>23</dim>
				</port>
			</output>
		</layer>
		<layer id="42" name="conv_pw_10/convolution" precision="FP16" type="Convolution">
			<data auto_pad="same_upper" dilations="1,1" group="1" kernel="1,1" output="512" pads_begin="0,0" pads_end="0,0" strides="1,1"/>
			<input>
				<port id="0">
					<dim>1</dim>
					<dim>512</dim>
					<dim>23</dim>
					<dim>23</dim>
				</port>
			</input>
			<output>
				<port id="3">
					<dim>1</dim>
					<dim>512</dim>
					<dim>23</dim>
					<dim>23</dim>
				</port>
			</output>
			<blobs>
				<weights offset="2150656" size="524288"/>
				<biases offset="2674944" size="1024"/>
			</blobs>
		</layer>
		<layer id="43" name="conv_pw_10_relu/Relu6" precision="FP16" type="Clamp">
			<data max="6" min="0"/>
			<input>
				<port id="0">
					<dim>1</dim>
					<dim>512</dim>
					<dim>23</dim>
					<dim>23</dim>
				</port>
			</input>
			<output>
				<port id="1">
					<dim>1</dim>
					<dim>512</dim>
					<dim>23</dim>
					<dim>23</dim>
				</port>
			</output>
		</layer>
		<layer id="44" name="conv_dw_11/depthwise" precision="FP16" type="Convolution">
			<data auto_pad="same_upper" dilations="1,1" group="512" kernel="3,3" output="512" pads_begin="1,1" pads_end="1,1" strides="1,1"/>
			<input>
				<port id="0">
					<dim>1</dim>
					<dim>512</dim>
					<dim>23</dim>
					<dim>23</dim>
				</port>
			</input>
			<output>
				<port id="3">
					<dim>1</dim>
					<dim>512</dim>
					<dim>23</dim>
					<dim>23</dim>
				</port>
			</output>
			<blobs>
				<weights offset="2675968" size="9216"/>
				<biases offset="2685184" size="1024"/>
			</blobs>
		</layer>
		<layer id="45" name="conv_dw_11_relu/Relu6" precision="FP16" type="Clamp">
			<data max="6" min="0"/>
			<input>
				<port id="0">
					<dim>1</dim>
					<dim>512</dim>
					<dim>23</dim>
					<dim>23</dim>
				</port>
			</input>
			<output>
				<port id="1">
					<dim>1</dim>
					<dim>512</dim>
					<dim>23</dim>
					<dim>23</dim>
				</port>
			</output>
		</layer>
		<layer id="46" name="conv_pw_11/convolution" precision="FP16" type="Convolution">
			<data auto_pad="same_upper" dilations="1,1" group="1" kernel="1,1" output="512" pads_begin="0,0" pads_end="0,0" strides="1,1"/>
			<input>
				<port id="0">
					<dim>1</dim>
					<dim>512</dim>
					<dim>23</dim>
					<dim>23</dim>
				</port>
			</input>
			<output>
				<port id="3">
					<dim>1</dim>
					<dim>512</dim>
					<dim>23</dim>
					<dim>23</dim>
				</port>
			</output>
			<blobs>
				<weights offset="2686208" size="524288"/>
				<biases offset="3210496" size="1024"/>
			</blobs>
		</layer>
		<layer id="47" name="conv_pw_11_relu/Relu6" precision="FP16" type="Clamp">
			<data max="6" min="0"/>
			<input>
				<port id="0">
					<dim>1</dim>
					<dim>512</dim>
					<dim>23</dim>
					<dim>23</dim>
				</port>
			</input>
			<output>
				<port id="1">
					<dim>1</dim>
					<dim>512</dim>
					<dim>23</dim>
					<dim>23</dim>
				</port>
			</output>
		</layer>
		<layer id="48" name="convtranspose/conv2d_transpose" precision="FP16" type="Deconvolution">
			<data auto_pad="same_upper" kernel="2,2" output="512" pads_begin="0,0" pads_end="0,0" strides="2,2"/>
			<input>
				<port id="0">
					<dim>1</dim>
					<dim>512</dim>
					<dim>23</dim>
					<dim>23</dim>
				</port>
			</input>
			<output>
				<port id="3">
					<dim>1</dim>
					<dim>512</dim>
					<dim>46</dim>
					<dim>46</dim>
				</port>
			</output>
			<blobs>
				<weights offset="3211520" size="2097152"/>
				<biases offset="5308672" size="1024"/>
			</blobs>
		</layer>
		<layer id="49" name="conv_dw_14/depthwise" precision="FP16" type="Convolution">
			<data auto_pad="same_upper" dilations="1,1" group="512" kernel="3,3" output="512" pads_begin="1,1" pads_end="1,1" strides="1,1"/>
			<input>
				<port id="0">
					<dim>1</dim>
					<dim>512</dim>
					<dim>46</dim>
					<dim>46</dim>
				</port>
			</input>
			<output>
				<port id="3">
					<dim>1</dim>
					<dim>512</dim>
					<dim>46</dim>
					<dim>46</dim>
				</port>
			</output>
			<blobs>
				<weights offset="5309696" size="9216"/>
				<biases offset="5318912" size="1024"/>
			</blobs>
		</layer>
		<layer id="50" name="conv_dw_14_relu/Relu6" precision="FP16" type="Clamp">
			<data max="6" min="0"/>
			<input>
				<port id="0">
					<dim>1</dim>
					<dim>512</dim>
					<dim>46</dim>
					<dim>46</dim>
				</port>
			</input>
			<output>
				<port id="1">
					<dim>1</dim>
					<dim>512</dim>
					<dim>46</dim>
					<dim>46</dim>
				</port>
			</output>
		</layer>
		<layer id="51" name="conv_pw_14/convolution" precision="FP16" type="Convolution">
			<data auto_pad="same_upper" dilations="1,1" group="1" kernel="1,1" output="256" pads_begin="0,0" pads_end="0,0" strides="1,1"/>
			<input>
				<port id="0">
					<dim>1</dim>
					<dim>512</dim>
					<dim>46</dim>
					<dim>46</dim>
				</port>
			</input>
			<output>
				<port id="3">
					<dim>1</dim>
					<dim>256</dim>
					<dim>46</dim>
					<dim>46</dim>
				</port>
			</output>
			<blobs>
				<weights offset="5319936" size="262144"/>
				<biases offset="5582080" size="512"/>
			</blobs>
		</layer>
		<layer id="52" name="conv_pw_14_relu/Relu6" precision="FP16" type="Clamp">
			<data max="6" min="0"/>
			<input>
				<port id="0">
					<dim>1</dim>
					<dim>256</dim>
					<dim>46</dim>
					<dim>46</dim>
				</port>
			</input>
			<output>
				<port id="1">
					<dim>1</dim>
					<dim>256</dim>
					<dim>46</dim>
					<dim>46</dim>
				</port>
			</output>
		</layer>
		<layer id="53" name="conv_dw_15/depthwise" precision="FP16" type="Convolution">
			<data auto_pad="same_upper" dilations="1,1" group="256" kernel="3,3" output="256" pads_begin="1,1" pads_end="1,1" strides="1,1"/>
			<input>
				<port id="0">
					<dim>1</dim>
					<dim>256</dim>
					<dim>46</dim>
					<dim>46</dim>
				</port>
			</input>
			<output>
				<port id="3">
					<dim>1</dim>
					<dim>256</dim>
					<dim>46</dim>
					<dim>46</dim>
				</port>
			</output>
			<blobs>
				<weights offset="5582592" size="4608"/>
				<biases offset="5587200" size="512"/>
			</blobs>
		</layer>
		<layer id="54" name="conv_dw_15_relu/Relu6" precision="FP16" type="Clamp">
			<data max="6" min="0"/>
			<input>
				<port id="0">
					<dim>1</dim>
					<dim>256</dim>
					<dim>46</dim>
					<dim>46</dim>
				</port>
			</input>
			<output>
				<port id="1">
					<dim>1</dim>
					<dim>256</dim>
					<dim>46</dim>
					<dim>46</dim>
				</port>
			</output>
		</layer>
		<layer id="55" name="conv_pw_15/convolution" precision="FP16" type="Convolution">
			<data auto_pad="same_upper" dilations="1,1" group="1" kernel="1,1" output="128" pads_begin="0,0" pads_end="0,0" strides="1,1"/>
			<input>
				<port id="0">
					<dim>1</dim>
					<dim>256</dim>
					<dim>46</dim>
					<dim>46</dim>
				</port>
			</input>
			<output>
				<port id="3">
					<dim>1</dim>
					<dim>128</dim>
					<dim>46</dim>
					<dim>46</dim>
				</port>
			</output>
			<blobs>
				<weights offset="5587712" size="65536"/>
				<biases offset="5653248" size="256"/>
			</blobs>
		</layer>
		<layer id="56" name="conv_pw_15_relu/Relu6" precision="FP16" type="Clamp">
			<data max="6" min="0"/>
			<input>
				<port id="0">
					<dim>1</dim>
					<dim>128</dim>
					<dim>46</dim>
					<dim>46</dim>
				</port>
			</input>
			<output>
				<port id="1">
					<dim>1</dim>
					<dim>128</dim>
					<dim>46</dim>
					<dim>46</dim>
				</port>
			</output>
		</layer>
		<layer id="57" name="Mconv1_stage1_L1/convolution" precision="FP16" type="Convolution">
			<data auto_pad="same_upper" dilations="1,1" group="1" kernel="3,3" output="128" pads_begin="1,1" pads_end="1,1" strides="1,1"/>
			<input>
				<port id="0">
					<dim>1</dim>
					<dim>128</dim>
					<dim>46</dim>
					<dim>46</dim>
				</port>
			</input>
			<output>
				<port id="3">
					<dim>1</dim>
					<dim>128</dim>
					<dim>46</dim>
					<dim>46</dim>
				</port>
			</output>
			<blobs>
				<weights offset="5653504" size="294912"/>
				<biases offset="5948416" size="256"/>
			</blobs>
		</layer>
		<layer id="58" name="activation_1/Relu" precision="FP16" type="ReLU">
			<input>
				<port id="0">
					<dim>1</dim>
					<dim>128</dim>
					<dim>46</dim>
					<dim>46</dim>
				</port>
			</input>
			<output>
				<port id="1">
					<dim>1</dim>
					<dim>128</dim>
					<dim>46</dim>
					<dim>46</dim>
				</port>
			</output>
		</layer>
		<layer id="59" name="Mconv2_stage1_L1/convolution" precision="FP16" type="Convolution">
			<data auto_pad="same_upper" dilations="1,1" group="1" kernel="3,3" output="128" pads_begin="1,1" pads_end="1,1" strides="1,1"/>
			<input>
				<port id="0">
					<dim>1</dim>
					<dim>128</dim>
					<dim>46</dim>
					<dim>46</dim>
				</port>
			</input>
			<output>
				<port id="3">
					<dim>1</dim>
					<dim>128</dim>
					<dim>46</dim>
					<dim>46</dim>
				</port>
			</output>
			<blobs>
				<weights offset="5948672" size="294912"/>
				<biases offset="6243584" size="256"/>
			</blobs>
		</layer>
		<layer id="60" name="activation_2/Relu" precision="FP16" type="ReLU">
			<input>
				<port id="0">
					<dim>1</dim>
					<dim>128</dim>
					<dim>46</dim>
					<dim>46</dim>
				</port>
			</input>
			<output>
				<port id="1">
					<dim>1</dim>
					<dim>128</dim>
					<dim>46</dim>
					<dim>46</dim>
				</port>
			</output>
		</layer>
		<layer id="61" name="Mconv3_stage1_L1/convolution" precision="FP16" type="Convolution">
			<data auto_pad="same_upper" dilations="1,1" group="1" kernel="3,3" output="128" pads_begin="1,1" pads_end="1,1" strides="1,1"/>
			<input>
				<port id="0">
					<dim>1</dim>
					<dim>128</dim>
					<dim>46</dim>
					<dim>46</dim>
				</port>
			</input>
			<output>
				<port id="3">
					<dim>1</dim>
					<dim>128</dim>
					<dim>46</dim>
					<dim>46</dim>
				</port>
			</output>
			<blobs>
				<weights offset="6243840" size="294912"/>
				<biases offset="6538752" size="256"/>
			</blobs>
		</layer>
		<layer id="62" name="activation_3/Relu" precision="FP16" type="ReLU">
			<input>
				<port id="0">
					<dim>1</dim>
					<dim>128</dim>
					<dim>46</dim>
					<dim>46</dim>
				</port>
			</input>
			<output>
				<port id="1">
					<dim>1</dim>
					<dim>128</dim>
					<dim>46</dim>
					<dim>46</dim>
				</port>
			</output>
		</layer>
		<layer id="63" name="Mconv4_stage1_L1/convolution" precision="FP16" type="Convolution">
			<data auto_pad="same_upper" dilations="1,1" group="1" kernel="1,1" output="512" pads_begin="0,0" pads_end="0,0" strides="1,1"/>
			<input>
				<port id="0">
					<dim>1</dim>
					<dim>128</dim>
					<dim>46</dim>
					<dim>46</dim>
				</port>
			</input>
			<output>
				<port id="3">
					<dim>1</dim>
					<dim>512</dim>
					<dim>46</dim>
					<dim>46</dim>
				</port>
			</output>
			<blobs>
				<weights offset="6539008" size="131072"/>
				<biases offset="6670080" size="1024"/>
			</blobs>
		</layer>
		<layer id="64" name="activation_4/Relu" precision="FP16" type="ReLU">
			<input>
				<port id="0">
					<dim>1</dim>
					<dim>512</dim>
					<dim>46</dim>
					<dim>46</dim>
				</port>
			</input>
			<output>
				<port id="1">
					<dim>1</dim>
					<dim>512</dim>
					<dim>46</dim>
					<dim>46</dim>
				</port>
			</output>
		</layer>
		<layer id="65" name="Mconv5_stage1_L1/convolution" precision="FP16" type="Convolution">
			<data auto_pad="same_upper" dilations="1,1" group="1" kernel="1,1" output="38" pads_begin="0,0" pads_end="0,0" strides="1,1"/>
			<input>
				<port id="0">
					<dim>1</dim>
					<dim>512</dim>
					<dim>46</dim>
					<dim>46</dim>
				</port>
			</input>
			<output>
				<port id="3">
					<dim>1</dim>
					<dim>38</dim>
					<dim>46</dim>
					<dim>46</dim>
				</port>
			</output>
			<blobs>
				<weights offset="6671104" size="38912"/>
				<biases offset="6710016" size="76"/>
			</blobs>
		</layer>
		<layer id="66" name="input_2" precision="FP16" type="Input">
			<output>
				<port id="0">
					<dim>1</dim>
					<dim>38</dim>
					<dim>46</dim>
					<dim>46</dim>
				</port>
			</output>
		</layer>
		<layer id="67" name="weight_stage1_L1/mul" precision="FP16" type="Eltwise">
			<data operation="mul"/>
			<input>
				<port id="0">
					<dim>1</dim>
					<dim>38</dim>
					<dim>46</dim>
					<dim>46</dim>
				</port>
				<port id="1">
					<dim>1</dim>
					<dim>38</dim>
					<dim>46</dim>
					<dim>46</dim>
				</port>
			</input>
			<output>
				<port id="2">
					<dim>1</dim>
					<dim>38</dim>
					<dim>46</dim>
					<dim>46</dim>
				</port>
			</output>
		</layer>
		<layer id="68" name="Mconv6_stage1_L1/convolution" precision="FP16" type="Convolution">
			<data auto_pad="same_upper" dilations="1,1" group="1" kernel="1,1" output="19" pads_begin="0,0" pads_end="0,0" strides="1,1"/>
			<input>
				<port id="0">
					<dim>1</dim>
					<dim>512</dim>
					<dim>46</dim>
					<dim>46</dim>
				</port>
			</input>
			<output>
				<port id="3">
					<dim>1</dim>
					<dim>19</dim>
					<dim>46</dim>
					<dim>46</dim>
				</port>
			</output>
			<blobs>
				<weights offset="6710092" size="19456"/>
				<biases offset="6729548" size="38"/>
			</blobs>
		</layer>
		<layer id="69" name="input_3" precision="FP16" type="Input">
			<output>
				<port id="0">
					<dim>1</dim>
					<dim>19</dim>
					<dim>46</dim>
					<dim>46</dim>
				</port>
			</output>
		</layer>
		<layer id="70" name="weight_stage1_L2/mul" precision="FP16" type="Eltwise">
			<data operation="mul"/>
			<input>
				<port id="0">
					<dim>1</dim>
					<dim>19</dim>
					<dim>46</dim>
					<dim>46</dim>
				</port>
				<port id="1">
					<dim>1</dim>
					<dim>19</dim>
					<dim>46</dim>
					<dim>46</dim>
				</port>
			</input>
			<output>
				<port id="2">
					<dim>1</dim>
					<dim>19</dim>
					<dim>46</dim>
					<dim>46</dim>
				</port>
			</output>
		</layer>
		<layer id="71" name="concatenate_1/concat" precision="FP16" type="Concat">
			<data axis="1"/>
			<input>
				<port id="0">
					<dim>1</dim>
					<dim>38</dim>
					<dim>46</dim>
					<dim>46</dim>
				</port>
				<port id="1">
					<dim>1</dim>
					<dim>19</dim>
					<dim>46</dim>
					<dim>46</dim>
				</port>
				<port id="2">
					<dim>1</dim>
					<dim>128</dim>
					<dim>46</dim>
					<dim>46</dim>
				</port>
			</input>
			<output>
				<port id="3">
					<dim>1</dim>
					<dim>185</dim>
					<dim>46</dim>
					<dim>46</dim>
				</port>
			</output>
		</layer>
		<layer id="72" name="Mconv1_stageT_L1/convolution" precision="FP16" type="Convolution">
			<data auto_pad="same_upper" dilations="1,1" group="1" kernel="1,1" output="128" pads_begin="0,0" pads_end="0,0" strides="1,1"/>
			<input>
				<port id="0">
					<dim>1</dim>
					<dim>185</dim>
					<dim>46</dim>
					<dim>46</dim>
				</port>
			</input>
			<output>
				<port id="3">
					<dim>1</dim>
					<dim>128</dim>
					<dim>46</dim>
					<dim>46</dim>
				</port>
			</output>
			<blobs>
				<weights offset="6729586" size="47360"/>
				<biases offset="6776946" size="256"/>
			</blobs>
		</layer>
		<layer id="73" name="activation_5/Relu" precision="FP16" type="ReLU">
			<input>
				<port id="0">
					<dim>1</dim>
					<dim>128</dim>
					<dim>46</dim>
					<dim>46</dim>
				</port>
			</input>
			<output>
				<port id="1">
					<dim>1</dim>
					<dim>128</dim>
					<dim>46</dim>
					<dim>46</dim>
				</port>
			</output>
		</layer>
		<layer id="74" name="Mconv0_stageT_L1/convolution" precision="FP16" type="Convolution">
			<data auto_pad="same_upper" dilations="1,1" group="1" kernel="3,3" output="128" pads_begin="1,1" pads_end="1,1" strides="1,1"/>
			<input>
				<port id="0">
					<dim>1</dim>
					<dim>128</dim>
					<dim>46</dim>
					<dim>46</dim>
				</port>
			</input>
			<output>
				<port id="3">
					<dim>1</dim>
					<dim>128</dim>
					<dim>46</dim>
					<dim>46</dim>
				</port>
			</output>
			<blobs>
				<weights offset="6777202" size="294912"/>
				<biases offset="7072114" size="256"/>
			</blobs>
		</layer>
		<layer id="75" name="activation_6/Relu" precision="FP16" type="ReLU">
			<input>
				<port id="0">
					<dim>1</dim>
					<dim>128</dim>
					<dim>46</dim>
					<dim>46</dim>
				</port>
			</input>
			<output>
				<port id="1">
					<dim>1</dim>
					<dim>128</dim>
					<dim>46</dim>
					<dim>46</dim>
				</port>
			</output>
		</layer>
		<layer id="76" name="Mconv1_stage2_L1/convolution" precision="FP16" type="Convolution">
			<data dilations="2,2" group="1" kernel="3,3" output="128" pads_begin="2,2" pads_end="2,2" strides="1,1"/>
			<input>
				<port id="0">
					<dim>1</dim>
					<dim>128</dim>
					<dim>46</dim>
					<dim>46</dim>
				</port>
			</input>
			<output>
				<port id="3">
					<dim>1</dim>
					<dim>128</dim>
					<dim>46</dim>
					<dim>46</dim>
				</port>
			</output>
			<blobs>
				<weights offset="7072370" size="294912"/>
				<biases offset="7367282" size="256"/>
			</blobs>
		</layer>
		<layer id="77" name="activation_7/Relu" precision="FP16" type="ReLU">
			<input>
				<port id="0">
					<dim>1</dim>
					<dim>128</dim>
					<dim>46</dim>
					<dim>46</dim>
				</port>
			</input>
			<output>
				<port id="1">
					<dim>1</dim>
					<dim>128</dim>
					<dim>46</dim>
					<dim>46</dim>
				</port>
			</output>
		</layer>
		<layer id="78" name="add_1/add" precision="FP16" type="Eltwise">
			<data operation="sum"/>
			<input>
				<port id="0">
					<dim>1</dim>
					<dim>128</dim>
					<dim>46</dim>
					<dim>46</dim>
				</port>
				<port id="1">
					<dim>1</dim>
					<dim>128</dim>
					<dim>46</dim>
					<dim>46</dim>
				</port>
			</input>
			<output>
				<port id="2">
					<dim>1</dim>
					<dim>128</dim>
					<dim>46</dim>
					<dim>46</dim>
				</port>
			</output>
		</layer>
		<layer id="79" name="Mconv3_stageT_L1/convolution" precision="FP16" type="Convolution">
			<data auto_pad="same_upper" dilations="1,1" group="1" kernel="1,1" output="128" pads_begin="0,0" pads_end="0,0" strides="1,1"/>
			<input>
				<port id="0">
					<dim>1</dim>
					<dim>128</dim>
					<dim>46</dim>
					<dim>46</dim>
				</port>
			</input>
			<output>
				<port id="3">
					<dim>1</dim>
					<dim>128</dim>
					<dim>46</dim>
					<dim>46</dim>
				</port>
			</output>
			<blobs>
				<weights offset="7367538" size="32768"/>
				<biases offset="7400306" size="256"/>
			</blobs>
		</layer>
		<layer id="80" name="activation_8/Relu" precision="FP16" type="ReLU">
			<input>
				<port id="0">
					<dim>1</dim>
					<dim>128</dim>
					<dim>46</dim>
					<dim>46</dim>
				</port>
			</input>
			<output>
				<port id="1">
					<dim>1</dim>
					<dim>128</dim>
					<dim>46</dim>
					<dim>46</dim>
				</port>
			</output>
		</layer>
		<layer id="81" name="Mconv2_stageT_L1/convolution" precision="FP16" type="Convolution">
			<data auto_pad="same_upper" dilations="1,1" group="1" kernel="3,3" output="128" pads_begin="1,1" pads_end="1,1" strides="1,1"/>
			<input>
				<port id="0">
					<dim>1</dim>
					<dim>128</dim>
					<dim>46</dim>
					<dim>46</dim>
				</port>
			</input>
			<output>
				<port id="3">
					<dim>1</dim>
					<dim>128</dim>
					<dim>46</dim>
					<dim>46</dim>
				</port>
			</output>
			<blobs>
				<weights offset="7400562" size="294912"/>
				<biases offset="7695474" size="256"/>
			</blobs>
		</layer>
		<layer id="82" name="activation_9/Relu" precision="FP16" type="ReLU">
			<input>
				<port id="0">
					<dim>1</dim>
					<dim>128</dim>
					<dim>46</dim>
					<dim>46</dim>
				</port>
			</input>
			<output>
				<port id="1">
					<dim>1</dim>
					<dim>128</dim>
					<dim>46</dim>
					<dim>46</dim>
				</port>
			</output>
		</layer>
		<layer id="83" name="Mconv2_stage2_L1/convolution" precision="FP16" type="Convolution">
			<data dilations="2,2" group="1" kernel="3,3" output="128" pads_begin="2,2" pads_end="2,2" strides="1,1"/>
			<input>
				<port id="0">
					<dim>1</dim>
					<dim>128</dim>
					<dim>46</dim>
					<dim>46</dim>
				</port>
			</input>
			<output>
				<port id="3">
					<dim>1</dim>
					<dim>128</dim>
					<dim>46</dim>
					<dim>46</dim>
				</port>
			</output>
			<blobs>
				<weights offset="7695730" size="294912"/>
				<biases offset="7990642" size="256"/>
			</blobs>
		</layer>
		<layer id="84" name="activation_10/Relu" precision="FP16" type="ReLU">
			<input>
				<port id="0">
					<dim>1</dim>
					<dim>128</dim>
					<dim>46</dim>
					<dim>46</dim>
				</port>
			</input>
			<output>
				<port id="1">
					<dim>1</dim>
					<dim>128</dim>
					<dim>46</dim>
					<dim>46</dim>
				</port>
			</output>
		</layer>
		<layer id="85" name="add_2/add" precision="FP16" type="Eltwise">
			<data operation="sum"/>
			<input>
				<port id="0">
					<dim>1</dim>
					<dim>128</dim>
					<dim>46</dim>
					<dim>46</dim>
				</port>
				<port id="1">
					<dim>1</dim>
					<dim>128</dim>
					<dim>46</dim>
					<dim>46</dim>
				</port>
			</input>
			<output>
				<port id="2">
					<dim>1</dim>
					<dim>128</dim>
					<dim>46</dim>
					<dim>46</dim>
				</port>
			</output>
		</layer>
		<layer id="86" name="Mconv5_stageT_L1/convolution" precision="FP16" type="Convolution">
			<data auto_pad="same_upper" dilations="1,1" group="1" kernel="1,1" output="128" pads_begin="0,0" pads_end="0,0" strides="1,1"/>
			<input>
				<port id="0">
					<dim>1</dim>
					<dim>128</dim>
					<dim>46</dim>
					<dim>46</dim>
				</port>
			</input>
			<output>
				<port id="3">
					<dim>1</dim>
					<dim>128</dim>
					<dim>46</dim>
					<dim>46</dim>
				</port>
			</output>
			<blobs>
				<weights offset="7990898" size="32768"/>
				<biases offset="8023666" size="256"/>
			</blobs>
		</layer>
		<layer id="87" name="activation_11/Relu" precision="FP16" type="ReLU">
			<input>
				<port id="0">
					<dim>1</dim>
					<dim>128</dim>
					<dim>46</dim>
					<dim>46</dim>
				</port>
			</input>
			<output>
				<port id="1">
					<dim>1</dim>
					<dim>128</dim>
					<dim>46</dim>
					<dim>46</dim>
				</port>
			</output>
		</layer>
		<layer id="88" name="Mconv4_stageT_L1/convolution" precision="FP16" type="Convolution">
			<data auto_pad="same_upper" dilations="1,1" group="1" kernel="3,3" output="128" pads_begin="1,1" pads_end="1,1" strides="1,1"/>
			<input>
				<port id="0">
					<dim>1</dim>
					<dim>128</dim>
					<dim>46</dim>
					<dim>46</dim>
				</port>
			</input>
			<output>
				<port id="3">
					<dim>1</dim>
					<dim>128</dim>
					<dim>46</dim>
					<dim>46</dim>
				</port>
			</output>
			<blobs>
				<weights offset="8023922" size="294912"/>
				<biases offset="8318834" size="256"/>
			</blobs>
		</layer>
		<layer id="89" name="activation_12/Relu" precision="FP16" type="ReLU">
			<input>
				<port id="0">
					<dim>1</dim>
					<dim>128</dim>
					<dim>46</dim>
					<dim>46</dim>
				</port>
			</input>
			<output>
				<port id="1">
					<dim>1</dim>
					<dim>128</dim>
					<dim>46</dim>
					<dim>46</dim>
				</port>
			</output>
		</layer>
		<layer id="90" name="Mconv3_stage2_L1/convolution" precision="FP16" type="Convolution">
			<data dilations="2,2" group="1" kernel="3,3" output="128" pads_begin="2,2" pads_end="2,2" strides="1,1"/>
			<input>
				<port id="0">
					<dim>1</dim>
					<dim>128</dim>
					<dim>46</dim>
					<dim>46</dim>
				</port>
			</input>
			<output>
				<port id="3">
					<dim>1</dim>
					<dim>128</dim>
					<dim>46</dim>
					<dim>46</dim>
				</port>
			</output>
			<blobs>
				<weights offset="8319090" size="294912"/>
				<biases offset="8614002" size="256"/>
			</blobs>
		</layer>
		<layer id="91" name="activation_13/Relu" precision="FP16" type="ReLU">
			<input>
				<port id="0">
					<dim>1</dim>
					<dim>128</dim>
					<dim>46</dim>
					<dim>46</dim>
				</port>
			</input>
			<output>
				<port id="1">
					<dim>1</dim>
					<dim>128</dim>
					<dim>46</dim>
					<dim>46</dim>
				</port>
			</output>
		</layer>
		<layer id="92" name="add_3/add" precision="FP16" type="Eltwise">
			<data operation="sum"/>
			<input>
				<port id="0">
					<dim>1</dim>
					<dim>128</dim>
					<dim>46</dim>
					<dim>46</dim>
				</port>
				<port id="1">
					<dim>1</dim>
					<dim>128</dim>
					<dim>46</dim>
					<dim>46</dim>
				</port>
			</input>
			<output>
				<port id="2">
					<dim>1</dim>
					<dim>128</dim>
					<dim>46</dim>
					<dim>46</dim>
				</port>
			</output>
		</layer>
		<layer id="93" name="Mconv7_stageT_L1/convolution" precision="FP16" type="Convolution">
			<data auto_pad="same_upper" dilations="1,1" group="1" kernel="1,1" output="128" pads_begin="0,0" pads_end="0,0" strides="1,1"/>
			<input>
				<port id="0">
					<dim>1</dim>
					<dim>128</dim>
					<dim>46</dim>
					<dim>46</dim>
				</port>
			</input>
			<output>
				<port id="3">
					<dim>1</dim>
					<dim>128</dim>
					<dim>46</dim>
					<dim>46</dim>
				</port>
			</output>
			<blobs>
				<weights offset="8614258" size="32768"/>
				<biases offset="8647026" size="256"/>
			</blobs>
		</layer>
		<layer id="94" name="activation_14/Relu" precision="FP16" type="ReLU">
			<input>
				<port id="0">
					<dim>1</dim>
					<dim>128</dim>
					<dim>46</dim>
					<dim>46</dim>
				</port>
			</input>
			<output>
				<port id="1">
					<dim>1</dim>
					<dim>128</dim>
					<dim>46</dim>
					<dim>46</dim>
				</port>
			</output>
		</layer>
		<layer id="95" name="Mconv6_stageT_L1/convolution" precision="FP16" type="Convolution">
			<data auto_pad="same_upper" dilations="1,1" group="1" kernel="3,3" output="128" pads_begin="1,1" pads_end="1,1" strides="1,1"/>
			<input>
				<port id="0">
					<dim>1</dim>
					<dim>128</dim>
					<dim>46</dim>
					<dim>46</dim>
				</port>
			</input>
			<output>
				<port id="3">
					<dim>1</dim>
					<dim>128</dim>
					<dim>46</dim>
					<dim>46</dim>
				</port>
			</output>
			<blobs>
				<weights offset="8647282" size="294912"/>
				<biases offset="8942194" size="256"/>
			</blobs>
		</layer>
		<layer id="96" name="activation_15/Relu" precision="FP16" type="ReLU">
			<input>
				<port id="0">
					<dim>1</dim>
					<dim>128</dim>
					<dim>46</dim>
					<dim>46</dim>
				</port>
			</input>
			<output>
				<port id="1">
					<dim>1</dim>
					<dim>128</dim>
					<dim>46</dim>
					<dim>46</dim>
				</port>
			</output>
		</layer>
		<layer id="97" name="Mconv4_stage2_L1/convolution" precision="FP16" type="Convolution">
			<data dilations="2,2" group="1" kernel="3,3" output="128" pads_begin="2,2" pads_end="2,2" strides="1,1"/>
			<input>
				<port id="0">
					<dim>1</dim>
					<dim>128</dim>
					<dim>46</dim>
					<dim>46</dim>
				</port>
			</input>
			<output>
				<port id="3">
					<dim>1</dim>
					<dim>128</dim>
					<dim>46</dim>
					<dim>46</dim>
				</port>
			</output>
			<blobs>
				<weights offset="8942450" size="294912"/>
				<biases offset="9237362" size="256"/>
			</blobs>
		</layer>
		<layer id="98" name="activation_16/Relu" precision="FP16" type="ReLU">
			<input>
				<port id="0">
					<dim>1</dim>
					<dim>128</dim>
					<dim>46</dim>
					<dim>46</dim>
				</port>
			</input>
			<output>
				<port id="1">
					<dim>1</dim>
					<dim>128</dim>
					<dim>46</dim>
					<dim>46</dim>
				</port>
			</output>
		</layer>
		<layer id="99" name="add_4/add" precision="FP16" type="Eltwise">
			<data operation="sum"/>
			<input>
				<port id="0">
					<dim>1</dim>
					<dim>128</dim>
					<dim>46</dim>
					<dim>46</dim>
				</port>
				<port id="1">
					<dim>1</dim>
					<dim>128</dim>
					<dim>46</dim>
					<dim>46</dim>
				</port>
			</input>
			<output>
				<port id="2">
					<dim>1</dim>
					<dim>128</dim>
					<dim>46</dim>
					<dim>46</dim>
				</port>
			</output>
		</layer>
		<layer id="100" name="Mconv5_stage2_L1/convolution" precision="FP16" type="Convolution">
			<data auto_pad="same_upper" dilations="1,1" group="1" kernel="7,7" output="128" pads_begin="3,3" pads_end="3,3" strides="1,1"/>
			<input>
				<port id="0">
					<dim>1</dim>
					<dim>128</dim>
					<dim>46</dim>
					<dim>46</dim>
				</port>
			</input>
			<output>
				<port id="3">
					<dim>1</dim>
					<dim>128</dim>
					<dim>46</dim>
					<dim>46</dim>
				</port>
			</output>
			<blobs>
				<weights offset="9237618" size="1605632"/>
				<biases offset="10843250" size="256"/>
			</blobs>
		</layer>
		<layer id="101" name="activation_17/Relu" precision="FP16" type="ReLU">
			<input>
				<port id="0">
					<dim>1</dim>
					<dim>128</dim>
					<dim>46</dim>
					<dim>46</dim>
				</port>
			</input>
			<output>
				<port id="1">
					<dim>1</dim>
					<dim>128</dim>
					<dim>46</dim>
					<dim>46</dim>
				</port>
			</output>
		</layer>
		<layer id="102" name="Mconv6_stage2_L1/convolution" precision="FP16" type="Convolution">
			<data auto_pad="same_upper" dilations="1,1" group="1" kernel="1,1" output="128" pads_begin="0,0" pads_end="0,0" strides="1,1"/>
			<input>
				<port id="0">
					<dim>1</dim>
					<dim>128</dim>
					<dim>46</dim>
					<dim>46</dim>
				</port>
			</input>
			<output>
				<port id="3">
					<dim>1</dim>
					<dim>128</dim>
					<dim>46</dim>
					<dim>46</dim>
				</port>
			</output>
			<blobs>
				<weights offset="10843506" size="32768"/>
				<biases offset="10876274" size="256"/>
			</blobs>
		</layer>
		<layer id="103" name="activation_18/Relu" precision="FP16" type="ReLU">
			<input>
				<port id="0">
					<dim>1</dim>
					<dim>128</dim>
					<dim>46</dim>
					<dim>46</dim>
				</port>
			</input>
			<output>
				<port id="1">
					<dim>1</dim>
					<dim>128</dim>
					<dim>46</dim>
					<dim>46</dim>
				</port>
			</output>
		</layer>
		<layer id="104" name="Mconv7_stage2_L1/convolution" precision="FP16" type="Convolution">
			<data auto_pad="same_upper" dilations="1,1" group="1" kernel="1,1" output="38" pads_begin="0,0" pads_end="0,0" strides="1,1"/>
			<input>
				<port id="0">
					<dim>1</dim>
					<dim>128</dim>
					<dim>46</dim>
					<dim>46</dim>
				</port>
			</input>
			<output>
				<port id="3">
					<dim>1</dim>
					<dim>38</dim>
					<dim>46</dim>
					<dim>46</dim>
				</port>
			</output>
			<blobs>
				<weights offset="10876530" size="9728"/>
				<biases offset="10886258" size="76"/>
			</blobs>
		</layer>
		<layer id="105" name="weight_stage2_L1/mul" precision="FP16" type="Eltwise">
			<data operation="mul"/>
			<input>
				<port id="0">
					<dim>1</dim>
					<dim>38</dim>
					<dim>46</dim>
					<dim>46</dim>
				</port>
				<port id="1">
					<dim>1</dim>
					<dim>38</dim>
					<dim>46</dim>
					<dim>46</dim>
				</port>
			</input>
			<output>
				<port id="2">
					<dim>1</dim>
					<dim>38</dim>
					<dim>46</dim>
					<dim>46</dim>
				</port>
			</output>
		</layer>
		<layer id="106" name="Mconv8_stage2_L1/convolution" precision="FP16" type="Convolution">
			<data auto_pad="same_upper" dilations="1,1" group="1" kernel="1,1" output="19" pads_begin="0,0" pads_end="0,0" strides="1,1"/>
			<input>
				<port id="0">
					<dim>1</dim>
					<dim>128</dim>
					<dim>46</dim>
					<dim>46</dim>
				</port>
			</input>
			<output>
				<port id="3">
					<dim>1</dim>
					<dim>19</dim>
					<dim>46</dim>
					<dim>46</dim>
				</port>
			</output>
			<blobs>
				<weights offset="10886334" size="4864"/>
				<biases offset="10891198" size="38"/>
			</blobs>
		</layer>
		<layer id="107" name="weight_stage2_L2/mul" precision="FP16" type="Eltwise">
			<data operation="mul"/>
			<input>
				<port id="0">
					<dim>1</dim>
					<dim>19</dim>
					<dim>46</dim>
					<dim>46</dim>
				</port>
				<port id="1">
					<dim>1</dim>
					<dim>19</dim>
					<dim>46</dim>
					<dim>46</dim>
				</port>
			</input>
			<output>
				<port id="2">
					<dim>1</dim>
					<dim>19</dim>
					<dim>46</dim>
					<dim>46</dim>
				</port>
			</output>
		</layer>
	</layers>
	<edges>
		<edge from-layer="0" from-port="0" to-layer="1" to-port="0"/>
		<edge from-layer="1" from-port="1" to-layer="2" to-port="0"/>
		<edge from-layer="2" from-port="3" to-layer="3" to-port="0"/>
		<edge from-layer="3" from-port="1" to-layer="4" to-port="0"/>
		<edge from-layer="4" from-port="3" to-layer="5" to-port="0"/>
		<edge from-layer="5" from-port="1" to-layer="6" to-port="0"/>
		<edge from-layer="6" from-port="3" to-layer="7" to-port="0"/>
		<edge from-layer="7" from-port="1" to-layer="8" to-port="0"/>
		<edge from-layer="8" from-port="3" to-layer="9" to-port="0"/>
		<edge from-layer="9" from-port="1" to-layer="10" to-port="0"/>
		<edge from-layer="10" from-port="3" to-layer="11" to-port="0"/>
		<edge from-layer="11" from-port="1" to-layer="12" to-port="0"/>
		<edge from-layer="12" from-port="3" to-layer="13" to-port="0"/>
		<edge from-layer="13" from-port="1" to-layer="14" to-port="0"/>
		<edge from-layer="14" from-port="3" to-layer="15" to-port="0"/>
		<edge from-layer="15" from-port="1" to-layer="16" to-port="0"/>
		<edge from-layer="16" from-port="3" to-layer="17" to-port="0"/>
		<edge from-layer="17" from-port="1" to-layer="18" to-port="0"/>
		<edge from-layer="18" from-port="3" to-layer="19" to-port="0"/>
		<edge from-layer="19" from-port="1" to-layer="20" to-port="0"/>
		<edge from-layer="20" from-port="3" to-layer="21" to-port="0"/>
		<edge from-layer="21" from-port="1" to-layer="22" to-port="0"/>
		<edge from-layer="22" from-port="3" to-layer="23" to-port="0"/>
		<edge from-layer="23" from-port="1" to-layer="24" to-port="0"/>
		<edge from-layer="24" from-port="3" to-layer="25" to-port="0"/>
		<edge from-layer="25" from-port="1" to-layer="26" to-port="0"/>
		<edge from-layer="26" from-port="3" to-layer="27" to-port="0"/>
		<edge from-layer="27" from-port="1" to-layer="28" to-port="0"/>
		<edge from-layer="28" from-port="3" to-layer="29" to-port="0"/>
		<edge from-layer="29" from-port="1" to-layer="30" to-port="0"/>
		<edge from-layer="30" from-port="3" to-layer="31" to-port="0"/>
		<edge from-layer="31" from-port="1" to-layer="32" to-port="0"/>
		<edge from-layer="32" from-port="3" to-layer="33" to-port="0"/>
		<edge from-layer="33" from-port="1" to-layer="34" to-port="0"/>
		<edge from-layer="34" from-port="3" to-layer="35" to-port="0"/>
		<edge from-layer="35" from-port="1" to-layer="36" to-port="0"/>
		<edge from-layer="36" from-port="3" to-layer="37" to-port="0"/>
		<edge from-layer="37" from-port="1" to-layer="38" to-port="0"/>
		<edge from-layer="38" from-port="3" to-layer="39" to-port="0"/>
		<edge from-layer="39" from-port="1" to-layer="40" to-port="0"/>
		<edge from-layer="40" from-port="3" to-layer="41" to-port="0"/>
		<edge from-layer="41" from-port="1" to-layer="42" to-port="0"/>
		<edge from-layer="42" from-port="3" to-layer="43" to-port="0"/>
		<edge from-layer="43" from-port="1" to-layer="44" to-port="0"/>
		<edge from-layer="44" from-port="3" to-layer="45" to-port="0"/>
		<edge from-layer="45" from-port="1" to-layer="46" to-port="0"/>
		<edge from-layer="46" from-port="3" to-layer="47" to-port="0"/>
		<edge from-layer="47" from-port="1" to-layer="48" to-port="0"/>
		<edge from-layer="48" from-port="3" to-layer="49" to-port="0"/>
		<edge from-layer="49" from-port="3" to-layer="50" to-port="0"/>
		<edge from-layer="50" from-port="1" to-layer="51" to-port="0"/>
		<edge from-layer="51" from-port="3" to-layer="52" to-port="0"/>
		<edge from-layer="52" from-port="1" to-layer="53" to-port="0"/>
		<edge from-layer="53" from-port="3" to-layer="54" to-port="0"/>
		<edge from-layer="54" from-port="1" to-layer="55" to-port="0"/>
		<edge from-layer="55" from-port="3" to-layer="56" to-port="0"/>
		<edge from-layer="56" from-port="1" to-layer="57" to-port="0"/>
		<edge from-layer="57" from-port="3" to-layer="58" to-port="0"/>
		<edge from-layer="58" from-port="1" to-layer="59" to-port="0"/>
		<edge from-layer="59" from-port="3" to-layer="60" to-port="0"/>
		<edge from-layer="60" from-port="1" to-layer="61" to-port="0"/>
		<edge from-layer="61" from-port="3" to-layer="62" to-port="0"/>
		<edge from-layer="62" from-port="1" to-layer="63" to-port="0"/>
		<edge from-layer="63" from-port="3" to-layer="64" to-port="0"/>
		<edge from-layer="64" from-port="1" to-layer="65" to-port="0"/>
		<edge from-layer="65" from-port="3" to-layer="67" to-port="0"/>
		<edge from-layer="66" from-port="0" to-layer="67" to-port="1"/>
		<edge from-layer="64" from-port="1" to-layer="68" to-port="0"/>
		<edge from-layer="68" from-port="3" to-layer="70" to-port="0"/>
		<edge from-layer="69" from-port="0" to-layer="70" to-port="1"/>
		<edge from-layer="65" from-port="3" to-layer="71" to-port="0"/>
		<edge from-layer="68" from-port="3" to-layer="71" to-port="1"/>
		<edge from-layer="56" from-port="1" to-layer="71" to-port="2"/>
		<edge from-layer="71" from-port="3" to-layer="72" to-port="0"/>
		<edge from-layer="72" from-port="3" to-layer="73" to-port="0"/>
		<edge from-layer="73" from-port="1" to-layer="74" to-port="0"/>
		<edge from-layer="74" from-port="3" to-layer="75" to-port="0"/>
		<edge from-layer="75" from-port="1" to-layer="76" to-port="0"/>
		<edge from-layer="76" from-port="3" to-layer="77" to-port="0"/>
		<edge from-layer="73" from-port="1" to-layer="78" to-port="0"/>
		<edge from-layer="77" from-port="1" to-layer="78" to-port="1"/>
		<edge from-layer="78" from-port="2" to-layer="79" to-port="0"/>
		<edge from-layer="79" from-port="3" to-layer="80" to-port="0"/>
		<edge from-layer="80" from-port="1" to-layer="81" to-port="0"/>
		<edge from-layer="81" from-port="3" to-layer="82" to-port="0"/>
		<edge from-layer="82" from-port="1" to-layer="83" to-port="0"/>
		<edge from-layer="83" from-port="3" to-layer="84" to-port="0"/>
		<edge from-layer="80" from-port="1" to-layer="85" to-port="0"/>
		<edge from-layer="84" from-port="1" to-layer="85" to-port="1"/>
		<edge from-layer="85" from-port="2" to-layer="86" to-port="0"/>
		<edge from-layer="86" from-port="3" to-layer="87" to-port="0"/>
		<edge from-layer="87" from-port="1" to-layer="88" to-port="0"/>
		<edge from-layer="88" from-port="3" to-layer="89" to-port="0"/>
		<edge from-layer="89" from-port="1" to-layer="90" to-port="0"/>
		<edge from-layer="90" from-port="3" to-layer="91" to-port="0"/>
		<edge from-layer="87" from-port="1" to-layer="92" to-port="0"/>
		<edge from-layer="91" from-port="1" to-layer="92" to-port="1"/>
		<edge from-layer="92" from-port="2" to-layer="93" to-port="0"/>
		<edge from-layer="93" from-port="3" to-layer="94" to-port="0"/>
		<edge from-layer="94" from-port="1" to-layer="95" to-port="0"/>
		<edge from-layer="95" from-port="3" to-layer="96" to-port="0"/>
		<edge from-layer="96" from-port="1" to-layer="97" to-port="0"/>
		<edge from-layer="97" from-port="3" to-layer="98" to-port="0"/>
		<edge from-layer="94" from-port="1" to-layer="99" to-port="0"/>
		<edge from-layer="98" from-port="1" to-layer="99" to-port="1"/>
		<edge from-layer="99" from-port="2" to-layer="100" to-port="0"/>
		<edge from-layer="100" from-port="3" to-layer="101" to-port="0"/>
		<edge from-layer="101" from-port="1" to-layer="102" to-port="0"/>
		<edge from-layer="102" from-port="3" to-layer="103" to-port="0"/>
		<edge from-layer="103" from-port="1" to-layer="104" to-port="0"/>
		<edge from-layer="104" from-port="3" to-layer="105" to-port="0"/>
		<edge from-layer="66" from-port="0" to-layer="105" to-port="1"/>
		<edge from-layer="103" from-port="1" to-layer="106" to-port="0"/>
		<edge from-layer="106" from-port="3" to-layer="107" to-port="0"/>
		<edge from-layer="69" from-port="0" to-layer="107" to-port="1"/>
	</edges>
	<meta_data>
		<MO_version value="2019.1.0-341-gc9b66a2"/>
		<cli_parameters>
			<data_type value="FP16"/>
			<disable_fusing value="False"/>
			<disable_gfusing value="False"/>
			<disable_nhwc_to_nchw value="False"/>
			<disable_omitting_optional value="False"/>
			<disable_resnet_optimization value="False"/>
			<enable_concat_optimization value="False"/>
			<enable_flattening_nested_params value="False"/>
			<extensions value="DIR"/>
			<framework value="tf"/>
			<generate_deprecated_IR_V2 value="False"/>
			<input value="input_1,input_2,input_3"/>
			<input_model value="DIR/op4.pb"/>
			<input_model_is_text value="False"/>
			<input_shape value="[1,368,368,3],[1,46,46,38],[1,46,46,19]"/>
			<k value="DIR/CustomLayersMapping.xml"/>
			<keep_shape_ops value="False"/>
			<legacy_mxnet_model value="False"/>
			<log_level value="ERROR"/>
			<mean_scale_values value="{}"/>
			<mean_values value="()"/>
			<move_to_preprocess value="False"/>
			<output_dir value="DIR"/>
			<placeholder_shapes value="{'input_3': array([ 1, 46, 46, 19]), 'input_1': array([  1, 368, 368,   3]), 'input_2': array([ 1, 46, 46, 38])}"/>
			<remove_output_softmax value="False"/>
			<reverse_input_channels value="False"/>
			<save_params_from_nd value="False"/>
			<scale_values value="()"/>
			<silent value="False"/>
			<version value="False"/>
			<unset unset_cli_parameters="batch, counts, finegrain_fusing, freeze_placeholder_with_value, input_checkpoint, input_meta_graph, input_proto, input_symbol, mean_file, mean_file_offsets, model_name, nd_prefix_name, output, pretrained_model_name, saved_model_dir, saved_model_tags, scale, tensorboard_logdir, tensorflow_custom_layer_libraries, tensorflow_custom_operations_config_update, tensorflow_object_detection_api_pipeline_config, tensorflow_operation_patterns, tensorflow_subgraph_patterns, tensorflow_use_custom_operations_config"/>
		</cli_parameters>
	</meta_data>
</net>
